…
    learn_gating=False,
    activation='relu',
    back_activation='leaky_relu',
    enc_activation='relu',
    aggregation='sum',
    pe_fea=False,
    pe_dim=10,
    n_head=16,
    padding_length=120,
    dim_feedforward=512,
    readout_channels=128,
    concat_pe=False,
    use_deg=True,
    use_lpe=True,
    use_spa=False,
).to(device)
print(model)
model.reset_parameters()
optimizer = Adam(model.parameters(), lr=0.0001,amsgrad=True)

SubFormer(
  (local_mp): LocalMP(
    (atom_encoder): AtomEncoder(
      (embeddings): ModuleList(
        (0-8): 9 x Embedding(100, 128)
      )
    )
    (clique_encoder): Embedding(4, 128)
    (activation): ReLU()
    (back_activation): LeakyReLU(negative_slope=0.01)
    (bond_encoders): ModuleList(
      (0-7): 8 x BondEncoder(
        (embeddings): ModuleList(
          (0-2): 3 x Embedding(6, 128)
        )
      )
    )
    (graph_convs): ModuleList(
      (0-7): 8 x AGATConv(128, phi=GATv2Conv(128, 128, heads=1), num_iters=1, epsilon=0.1, gamma=0.1)
    )
    (graph_norms): ModuleList(
      (0-7): 8 x BatchNorm1d(128, eps=1e-05, momentum=0.1, affine=True, track_running_stats=True)
    )
    (sub_norms): ModuleList(
      (0-7): 8 x BatchNorm1d(128, eps=1e-05, momentum=0.1, affine=True, track_running_stats=True)
    )
    (atom2clique_lins): ModuleList(
      (0-7): 8 x Linear(in_features=128, out_features=128, bias=True)
    )
    (clique2atom_lins): ModuleList(
      (0-7): 8 x Linear(in_features=128, out_features=128, bias=True)
    )
    (clique): Linear(in_features=128, out_features=128, bias=True)
  )
  (pe): PositionalEncoding(
    (activation): ReLU()
    (deg_emb): Embedding(50, 128)
    (deg_lin): Linear(in_features=128, out_features=128, bias=True)
    (deg_merge): Linear(in_features=128, out_features=128, bias=True)
    (lpe_lin): Linear(in_features=10, out_features=128, bias=True)
    (lpe_merge): Linear(in_features=128, out_features=128, bias=True)
  )
  (encoder): Encoder(
    (activation): ReLU()
    (encoder_layer): TransformerEncoderLayer(
      (self_attn): MultiheadAttention(
        (out_proj): NonDynamicallyQuantizableLinear(in_features=128, out_features=128, bias=True)
      )
      (linear1): Linear(in_features=128, out_features=512, bias=True)
      (dropout): Dropout(p=0.2, inplace=False)
      (linear2): Linear(in_features=512, out_features=128, bias=True)
      (norm1): LayerNorm((128,), eps=1e-05, elementwise_affine=True)
      (norm2): LayerNorm((128,), eps=1e-05, elementwise_affine=True)
      (dropout1): Dropout(p=0.2, inplace=False)
      (dropout2): Dropout(p=0.2, inplace=False)
    )
    (encoder): TransformerEncoder(
      (layers): ModuleList(
        (0-3): 4 x TransformerEncoderLayer(
          (self_attn): MultiheadAttention(
            (out_proj): NonDynamicallyQuantizableLinear(in_features=128, out_features=128, bias=True)
          )
          (linear1): Linear(in_features=128, out_features=512, bias=True)
          (dropout): Dropout(p=0.2, inplace=False)
          (linear2): Linear(in_features=512, out_features=128, bias=True)
          (norm1): LayerNorm((128,), eps=1e-05, elementwise_affine=True)
          (norm2): LayerNorm((128,), eps=1e-05, elementwise_affine=True)
          (dropout1): Dropout(p=0.2, inplace=False)
          (dropout2): Dropout(p=0.2, inplace=False)
        )
      )
    )
    (readout): Sequential(
      (0): Linear(in_features=128, out_features=128, bias=True)
      (1): ReLU()
      (2): Linear(in_features=128, out_features=128, bias=True)
      (3): ReLU()
      (4): Linear(in_features=128, out_features=12, bias=True)
    )
  )
)
100%|███████████████████████████████████████████████████████████████████████████████████████████████████████████████████████████████████████████████████████████████████████████████████████████████████████████████████████████████████████████████████████████████████████████████████████████████████████████████████████████████████████████████████| 98/98 [00:04<00:00, 22.81it/s]
…
