…
    n_head=8,
    padding_length=260,
    d_model=128,
    dim_feedforward=256,
    readout_channels=128,
    concat_pe=True,
    use_deg=True,
    use_lpe=False,
    use_spa=True,
).to(device)
print(model)
model.reset_parameters()
optimizer = Adam(model.parameters(), lr=0.0001,amsgrad=True)
scheduler = torch.optim.lr_scheduler.ReduceLROnPlateau(optimizer, mode='min', factor=0.5,
                              patience=3, min_lr=0.00001)

SubFormer(
  (local_mp): LocalMP(
    (atom_encoder): AtomEncoder(
      (embeddings): ModuleList(
        (0-8): 9 x Embedding(100, 64)
      )
    )
    (clique_encoder): Embedding(4, 64)
    (activation): ReLU()
    (back_activation): LeakyReLU(negative_slope=0.01)
    (bond_encoders): ModuleList(
      (0-2): 3 x BondEncoder(
        (embeddings): ModuleList(
          (0-2): 3 x Embedding(6, 64)
        )
      )
    )
    (graph_convs): ModuleList(
      (0-2): 3 x GINEConv(nn=Sequential(
        (0): Linear(in_features=64, out_features=128, bias=True)
        (1): BatchNorm1d(128, eps=1e-05, momentum=0.1, affine=True, track_running_stats=True)
        (2): ReLU()
        (3): Linear(in_features=128, out_features=64, bias=True)
      ))
    )
    (graph_norms): ModuleList(
      (0-2): 3 x BatchNorm1d(64, eps=1e-05, momentum=0.1, affine=True, track_running_stats=True)
    )
    (sub_norms): ModuleList(
      (0-2): 3 x BatchNorm1d(64, eps=1e-05, momentum=0.1, affine=True, track_running_stats=True)
    )
    (atom2clique_lins): ModuleList(
      (0-2): 3 x Linear(in_features=64, out_features=64, bias=True)
    )
    (clique2atom_lins): ModuleList(
      (0-2): 3 x Linear(in_features=64, out_features=64, bias=True)
    )
    (clique): Linear(in_features=64, out_features=64, bias=True)
    (pe_lin): Linear(in_features=10, out_features=64, bias=True)
    (cat_lin): Linear(in_features=128, out_features=64, bias=True)
  )
  (pe): PositionalEncoding(
    (activation): ReLU()
    (deg_emb): Embedding(50, 64)
    (deg_lin): Linear(in_features=64, out_features=64, bias=True)
    (deg_merge): Linear(in_features=64, out_features=64, bias=True)
    (spa_lin): Linear(in_features=10, out_features=64, bias=True)
  )
  (encoder): Encoder(
    (activation): ReLU()
    (encoder_layer): TransformerEncoderLayer(
      (self_attn): MultiheadAttention(
        (out_proj): NonDynamicallyQuantizableLinear(in_features=128, out_features=128, bias=True)
      )
      (linear1): Linear(in_features=128, out_features=256, bias=True)
      (dropout): Dropout(p=0.5, inplace=False)
      (linear2): Linear(in_features=256, out_features=128, bias=True)
      (norm1): LayerNorm((128,), eps=1e-05, elementwise_affine=True)
      (norm2): LayerNorm((128,), eps=1e-05, elementwise_affine=True)
      (dropout1): Dropout(p=0.5, inplace=False)
      (dropout2): Dropout(p=0.5, inplace=False)
    )
    (encoder): TransformerEncoder(
      (layers): ModuleList(
        (0-4): 5 x TransformerEncoderLayer(
          (self_attn): MultiheadAttention(
            (out_proj): NonDynamicallyQuantizableLinear(in_features=128, out_features=128, bias=True)
          )
          (linear1): Linear(in_features=128, out_features=256, bias=True)
          (dropout): Dropout(p=0.5, inplace=False)
          (linear2): Linear(in_features=256, out_features=128, bias=True)
          (norm1): LayerNorm((128,), eps=1e-05, elementwise_affine=True)
          (norm2): LayerNorm((128,), eps=1e-05, elementwise_affine=True)
          (dropout1): Dropout(p=0.5, inplace=False)
          (dropout2): Dropout(p=0.5, inplace=False)
        )
      )
    )
    (readout): Sequential(
      (0): Linear(in_features=128, out_features=128, bias=True)
      (1): ReLU()
      (2): Linear(in_features=128, out_features=128, bias=True)
      (3): ReLU()
      (4): Linear(in_features=128, out_features=1, bias=True)
    )
  )
)

Epoch: 001, Loss: 0.1592, Train: 0.7313, Val: 0.7816, Test: 0.7421
100%|██████████████████████████████████████████████████████████████████████████████████████████████████████████████████████████████████████████████████████████████████████████████████████████████████████████████████████████████████████████████████████████████████████████████████████████████████████████████████████████████████████| 1028/1028 [00:54<00:00, 19.02it/s]
…
