# some logs to facilitate the training

((pytorch) zpengmei@zpengmei-X670-AORUS-ELITE-AX:~/PycharmProjects/SubFormer/SubFormer/subformer/train$ python train_zinc.py
Random seed set as 4321
SubFormer(
  (local_mp): LocalMP(
    (atom_encoder): AtomEncoder(
      (embeddings): ModuleList(
        (0-8): 9 x Embedding(100, 64)
      )
    )
    (clique_encoder): Embedding(4, 64)
    (activation): ReLU()
    (back_activation): LeakyReLU(negative_slope=0.01)
    (bond_encoders): ModuleList(
      (0-1): 2 x BondEncoder(
        (embeddings): ModuleList(
          (0-2): 3 x Embedding(6, 64)
        )
      )
    )
    (graph_convs): ModuleList(
      (0-1): 2 x GINEConv(nn=Sequential(
        (0): Linear(in_features=64, out_features=128, bias=True)
        (1): BatchNorm1d(128, eps=1e-05, momentum=0.1, affine=True, track_running_stats=True)
        (2): ReLU()
        (3): Linear(in_features=128, out_features=64, bias=True)
      ))
    )
    (graph_norms): ModuleList(
      (0-1): 2 x BatchNorm1d(64, eps=1e-05, momentum=0.1, affine=True, track_running_stats=True)
    )
    (sub_norms): ModuleList(
      (0-1): 2 x BatchNorm1d(64, eps=1e-05, momentum=0.1, affine=True, track_running_stats=True)
    )
    (atom2clique_lins): ModuleList(
      (0-1): 2 x Linear(in_features=64, out_features=64, bias=True)
    )
    (clique2atom_lins): ModuleList(
      (0-1): 2 x Linear(in_features=64, out_features=64, bias=True)
    )
    (clique): Linear(in_features=64, out_features=64, bias=True)
  )
  (pe): PositionalEncoding(
    (activation): ReLU()
    (deg_emb): Embedding(50, 64)
    (deg_lin): Linear(in_features=64, out_features=64, bias=True)
    (deg_merge): Linear(in_features=64, out_features=64, bias=True)
    (spa_lin): Linear(in_features=10, out_features=64, bias=True)
  )
  (encoder): Encoder(
    (activation): ReLU()
    (encoder_layer): TransformerEncoderLayer(
      (self_attn): MultiheadAttention(
        (out_proj): NonDynamicallyQuantizableLinear(in_features=128, out_features=128, bias=True)
      )
      (linear1): Linear(in_features=128, out_features=128, bias=True)
      (dropout): Dropout(p=0.1, inplace=False)
      (linear2): Linear(in_features=128, out_features=128, bias=True)
      (norm1): LayerNorm((128,), eps=1e-05, elementwise_affine=True)
      (norm2): LayerNorm((128,), eps=1e-05, elementwise_affine=True)
      (dropout1): Dropout(p=0.1, inplace=False)
      (dropout2): Dropout(p=0.1, inplace=False)
    )
    (encoder): TransformerEncoder(
      (layers): ModuleList(
        (0-2): 3 x TransformerEncoderLayer(
          (self_attn): MultiheadAttention(
            (out_proj): NonDynamicallyQuantizableLinear(in_features=128, out_features=128, bias=True)
          )
          (linear1): Linear(in_features=128, out_features=128, bias=True)
          (dropout): Dropout(p=0.1, inplace=False)
          (linear2): Linear(in_features=128, out_features=128, bias=True)
          (norm1): LayerNorm((128,), eps=1e-05, elementwise_affine=True)
          (norm2): LayerNorm((128,), eps=1e-05, elementwise_affine=True)
          (dropout1): Dropout(p=0.1, inplace=False)
          (dropout2): Dropout(p=0.1, inplace=False)
        )
      )
    )
    (readout): Sequential(
      (0): Linear(in_features=192, out_features=128, bias=True)
      (1): ReLU()
      (2): Linear(in_features=128, out_features=128, bias=True)
      (3): ReLU()
      (4): Linear(in_features=128, out_features=1, bias=True)
    )
  )
)
Number of parameters:  567173

Run 1:

Epoch: 001, LR: 0.00100, Loss: 0.6571, Val: 0.5730, Test: 0.5975
Epoch: 002, LR: 0.00100, Loss: 0.5208, Val: 0.4271, Test: 0.4511
Epoch: 003, LR: 0.00100, Loss: 0.4301, Val: 0.3894, Test: 0.4128
Epoch: 004, LR: 0.00100, Loss: 0.4303, Val: 0.4196, Test: 0.4128
Epoch: 005, LR: 0.00100, Loss: 0.3686, Val: 0.5244, Test: 0.4128
…
